model/keypoint_classifier/keypoint_classifier_v1.tflite (tflite, 17792 bytes, 6 tensors)

sequential_25/dense_77/BiasAdd/ReadVariableOp f4 [23]
000000 f4 f9 ee be 7c cc c3 3d 33 64 87 bc c0 98 01 3e
       -0.46675074 0.09560487 -0.01652727 0.12655926
000010 66 d1 2c 3e 4e 29 49 be 76 00 08 be d2 cb ee 3d
       0.16876754 -0.19644663 -0.13281426 0.116599694
000020 47 98 ff 3c 9c b8 ab 3e ec 5a cb bd 02 45 bf 3d
       0.031200541 0.33539283 -0.09929451 0.09339334
000030 8f 71 0c be f7 db 17 be eb 34 ae bd e5 ce d5 bd
       -0.13715194 -0.14830004 -0.08506187 -0.104398526
000040 e8 18 84 3e 3b e9 50 3c a9 30 9b 3e 6f f5 7b bd
       0.25800252 0.012750919 0.30310562 -0.06151336
000050 25 f6 51 3d 11 04 1b bd 02 5a b3 bc
       0.051260132 -0.037845675 -0.021893505

sequential_25/dense_76/BiasAdd/ReadVariableOp f4 [50]
000000 23 31 9e bd 46 fb 53 3d e3 da 9e bd 0c 70 77 be
       -0.07724216 0.051753305 -0.07756593 -0.24163836
000010 30 f7 91 3e a6 c8 dc bc d6 9d 73 3e 02 ca 98 3e
       0.28508902 -0.026951145 0.23790678 0.2984162
000020 66 09 7f 3e f1 ee e5 3e 64 e2 8a be 54 b8 84 3e
       0.24905929 0.4490886 -0.27125847 0.2592188
000030 41 23 d9 bc e7 1d 5b 3d b5 6c 89 3e 84 7e 13 3f
       -0.026506068 0.053495314 0.2684075 0.5761492
000040 ba 52 a3 bd f1 71 1f bd f9 3c 9a 3e eb ab 47 3e
       -0.07974763 -0.038927022 0.30124643 0.19499175
000050 2c 27 ab 3c 6e e5 ce 3e 0f 41 2b 3e 42 c6 b1 be
       0.020892702 0.40409416 0.16724037 -0.3472157
000060 5c 4d 5a bd 2a ff 12 be 8e 07 0a 3e 78 4a 0b 3d
       -0.053296432 -0.1435515 0.13479444 0.034006566
000070 04 c5 12 3e cf cb 45 3e 85 83 07 be 92 22 ed 3d
       0.14332968 0.19316028 -0.13233764 0.115788594
000080 10 33 92 3d c9 ef 02 3f e0 b9 fe 3e 03 6f 1a bc
       0.07138646 0.51147133 0.49751186 -0.009425881
000090 79 9e 41 be c9 e3 d1 3a 55 c7 5f bb f6 eb be 3e
       -0.18908109 0.001601332 -0.003414591 0.372894
0000a0 fe 35 c0 3d bf 29 87 be 11 e7 09 3f 58 76 64 3e
       0.09385298 -0.26399037 0.53868204 0.2231077
0000b0 01 4f 0c 3e 6d 7b e8 3d 9c dd 02 be c2 20 41 39
       0.13702013 0.113516666 -0.1277985 0.00018418118
0000c0 95 e3 be 3d 76 08 c7 3e
       0.093207516 0.38873643

sequential_25/dense_75/BiasAdd/ReadVariableOp f4 [100]
000000 82 e3 d4 be e3 a3 2a be 82 5d 83 3e fe f6 f4 bc
       -0.41579825 -0.1666408 0.25657278 -0.029902931
000010 2c b7 8e 3d 5a 2f ff be d2 24 bf be 1d 9d 9d be
       0.06968531 -0.49840814 -0.3733278 -0.3078393
000020 89 a5 df bd 86 23 3e be 48 23 20 3e 78 5b 86 3c
       -0.10920245 -0.18568239 0.15638459 0.016401038
000030 d4 d9 5c 3e 83 39 62 3e c4 08 fe bd f2 80 34 bd
       0.2156747 0.22092251 -0.12404016 -0.044068284
000040 f2 5e 2c be 03 69 e2 3c db a8 bd 3d 87 89 d2 3e
       -0.16833094 0.027637964 0.09260722 0.4112055
000050 41 0f 61 be 8c c4 71 be f7 93 b4 be ba a5 d8 bc
       -0.21978475 -0.23610133 -0.35269138 -0.026446212
000060 3c 2c 8d bd 8d 82 4a be f1 8d a3 3e 81 92 44 3e
       -0.06893203 -0.19776364 0.3194423 0.19196512
000070 57 3a df 3d 53 d2 11 be ff 15 a0 be 11 17 e2 3d
       0.10899799 -0.14240389 -0.31266782 0.11039556
000080 b3 cc 6e bc c8 73 06 3e fd 60 0a be c6 cd 94 3e
       -0.014575171 0.13130105 -0.1351356 0.29063243
000090 09 23 73 be 3c 94 1a bc d3 7e 63 3e 2d a1 8c be
       -0.23743834 -0.009434756 0.22216348 -0.27466717
0000a0 44 2d 3a 3d 3f 91 ac bd 46 26 9e bd 52 1d d4 be
       0.045453325 -0.08426141 -0.07722144 -0.4142862
0000b0 da e9 af bd 45 eb 8e 3d d9 b5 56 3e f5 2e 78 bc
       -0.085895255 0.06978468 0.20967807 -0.015147914
0000c0 ec 12 a8 bc 0c b2 eb 3d 74 38 b5 be de ee 9b 3e
       -0.020516835 0.11508569 -0.35394633 0.3045568
0000d0 24 e9 83 3e 7b 22 b0 3e f8 00 ad be b9 53 bc be
       0.2576381 0.34401307 -0.33789802 -0.36782625
0000e0 83 c5 0e 3e bc 74 0c bf 00 06 4b 3d 09 60 de 3d
       0.13942532 -0.5486562 0.04956627 0.10858161
0000f0 06 6b af 3d ec 6d 13 be 51 0f 96 3e cd 4f 36 bd
       0.08565335 -0.143974 0.2930856 -0.044509698
000100 1b 14 94 be 1d cc ba bd 7f d4 8b be 29 52 91 3d
       -0.2892159 -0.09120963 -0.2731056 0.07095749
000110 fe 41 8c be d8 b9 6d bd 9b a6 97 3e 88 a9 cc be
       -0.27394098 -0.058038563 0.29619297 -0.39973092
000120 22 8f b5 be ab 95 78 be c4 6a 12 be 76 28 15 bc
       -0.35460764 -0.24275844 -0.1429854 -0.009103885
000130 ce fd c3 be 91 df c2 be 6e 65 a5 bd 6f 9a d7 be
       -0.38279575 -0.38061193 -0.08075987 -0.4211001
000140 c3 3e 52 3c 5f db eb bd f4 39 3e be 38 e3 8a 3d
       0.012832346 -0.11516451 -0.18576795 0.0678162
000150 35 a9 ea be 19 da 05 3e 17 3e 71 be 80 fe e9 3d
       -0.4583222 0.13071479 -0.23558842 0.11425495
000160 e3 56 32 be 51 93 28 be 6a 33 3f 3c c6 02 da 3d
       -0.17415957 -0.16462447 0.011669973 0.1064506
000170 1f 23 6e 3d ad f4 3c 3d c9 cb 82 3e ef ed 2a be
       0.058138963 0.04613178 0.255461 -0.16692327
000180 bc 7d f3 be f2 80 08 bd 7f 32 54 3c 9e f5 41 bc
       -0.47556865 -0.033326097 0.012951492 -0.011838345

sequential_25/dense_75/MatMul i1 [100, 86] scale=0.020014884 zero_point=0
000000 08 ee fe 03 fc 00 ff 04 fc 03 01 ff fc 02 fe 03
       0.16011907 -0.3602679 -0.040029768 0.060044654 -0.080059536 0.0 -0.020014884 0.080059536 -0.080059536 0.060044654 0.020014884 -0.020014884 -0.080059536 0.040029768 -0.040029768 0.060044654
000010 fe 00 00 04 00 01 ff 02 00 03 02 02 f8 ff fe 01
       -0.040029768 0.0 0.0 0.080059536 0.0 0.020014884 -0.020014884 0.040029768 0.0 0.060044654 0.040029768 0.040029768 -0.16011907 -0.020014884 -0.040029768 0.020014884
000020 fd 02 03 ff fa 01 fc 01 fa 01 fd ff 08 03 05 04
       -0.060044654 0.040029768 0.060044654 -0.020014884 -0.12008931 0.020014884 -0.080059536 0.020014884 -0.12008931 0.020014884 -0.060044654 -0.020014884 0.16011907 0.060044654 0.10007442 0.080059536
000030 fa 02 f8 fd f7 f7 d8 01 f1 fd f1 00 e5 f9 d9 00
       -0.12008931 0.040029768 -0.16011907 -0.060044654 -0.18013395 -0.18013395 -0.80059534 0.020014884 -0.30022326 -0.060044654 -0.30022326 0.0 -0.5404019 -0.14010419 -0.78058046 0.0
000040 fd ff 0c 05 06 01 ec ff 0d 05 37 02 33 01 04 fe
       -0.060044654 -0.020014884 0.24017861 0.10007442 0.12008931 0.020014884 -0.40029767 -0.020014884 0.2601935 0.10007442 1.1008186 0.040029768 1.0207591 0.020014884 0.080059536 -0.040029768
000050 1a 04 31 01 46 fe 03 5f 01 03 ff 01 fe ff 03 00
       0.520387 0.080059536 0.98072934 0.020014884 1.4010419 -0.040029768 0.060044654 1.9014139 0.020014884 0.060044654 -0.020014884 0.020014884 -0.040029768 -0.020014884 0.060044654 0.0
000060 0a fd fc ff 00 00 fe f9 ff fc 01 fe fe fe fd fc
       0.20014884 -0.060044654 -0.080059536 -0.020014884 0.0 0.0 -0.040029768 -0.14010419 -0.020014884 -0.080059536 0.020014884 -0.040029768 -0.040029768 -0.040029768 -0.060044654 -0.080059536
000070 f6 02 01 01 fb fb 01 01 fe 03 04 02 05 00 03 00
       -0.20014884 0.040029768 0.020014884 0.020014884 -0.10007442 -0.10007442 0.020014884 0.020014884 -0.040029768 0.060044654 0.080059536 0.040029768 0.10007442 0.0 0.060044654 0.0
000080 03 01 f4 06 e7 0a dd 01 d4 04 ca ff ec 06 fd 02
       0.060044654 0.020014884 -0.24017861 0.12008931 -0.5003721 0.20014884 -0.70052093 0.020014884 -0.8806549 0.080059536 -1.0808038 -0.020014884 -0.40029767 0.12008931 -0.060044654 0.040029768
000090 16 02 1c fb f7 04 13 06 2d 05 32 0f fb 04 0f 03
       0.44032744 0.040029768 0.56041676 -0.10007442 -0.18013395 0.080059536 0.3802828 0.12008931 0.90066975 0.10007442 1.0007442 0.30022326 -0.10007442 0.080059536 0.30022326 0.060044654
0000a0 fe 03 07 02 03 04 12 ff 02 fe 0c 02 fd 5d 0a 04
       -0.040029768 0.060044654 0.14010419 0.040029768 0.060044654 0.080059536 0.3602679 -0.020014884 0.040029768 -0.040029768 0.24017861 0.040029768 -0.060044654 1.8613842 0.20014884 0.080059536
0000b0 16 06 20 04 2d 01 37 ff 08 01 0c fc fb ff fb fe
       0.44032744 0.12008931 0.6404763 0.080059536 0.90066975 0.020014884 1.1008186 -0.020014884 0.16011907 0.020014884 0.24017861 -0.080059536 -0.10007442 -0.020014884 -0.10007442 -0.040029768
0000c0 f6 fd 05 ff 00 00 fe fd ed 00 00 00 05 fe fe ff
       -0.20014884 -0.060044654 0.10007442 -0.020014884 0.0 0.0 -0.040029768 -0.060044654 -0.3802828 0.0 0.0 0.0 0.10007442 -0.040029768 -0.040029768 -0.020014884
0000d0 e7 fe f9 01 f5 03 f6 00 06 00 0c 03 03 00 f9 01
       -0.5003721 -0.040029768 -0.14010419 0.020014884 -0.22016372 0.060044654 -0.20014884 0.0 0.12008931 0.0 0.24017861 0.060044654 0.060044654 0.0 -0.14010419 0.020014884
0000e0 f1 fc 05 fd 0d 01 0a 02 15 02 02 ff fa fc 09 00
       -0.30022326 -0.080059536 0.10007442 -0.060044654 0.2601935 0.020014884 0.20014884 0.040029768 0.42031255 0.040029768 0.040029768 -0.020014884 -0.12008931 -0.080059536 0.18013395 0.0
0000f0 1b fe fe 01 f6 02 f9 01 fc 02 fc 03 f4 03 f0 00
       0.5404019 -0.040029768 -0.040029768 0.020014884 -0.20014884 0.040029768 -0.14010419 0.020014884 -0.080059536 0.040029768 -0.080059536 0.060044654 -0.24017861 0.060044654 -0.32023814 0.0

sequential_25/dense_76/MatMul i1 [50, 100] scale=0.009399478 zero_point=0
000000 f0 e9 fa 06 06 09 24 02 11 f2 04 b4 04 05 0d 19
       -0.15039165 -0.216188 -0.05639687 0.05639687 0.05639687 0.08459531 0.33838123 0.018798957 0.15979113 -0.13159269 0.037597913 -0.71436036 0.037597913 0.04699739 0.12219322 0.23498696
000010 d6 fe 25 08 05 0d 28 13 1d ea fd 1a f1 0f f6 00
       -0.3947781 -0.018798957 0.3477807 0.07519583 0.04699739 0.12219322 0.37597913 0.17859009 0.2725849 -0.20678852 -0.028198436 0.24438643 -0.14099218 0.14099218 -0.09399478 0.0
000020 12 14 0f 05 e7 02 11 1e f5 0f 15 28 02 f8 fc 27
       0.16919062 0.18798956 0.14099218 0.04699739 -0.23498696 0.018798957 0.15979113 0.28198436 -0.10339426 0.14099218 0.19738905 0.37597913 0.018798957 -0.07519583 -0.037597913 0.36657965
000030 1a 05 13 00 03 0c 01 e8 ec 14 fc 22 06 21 f6 0f
       0.24438643 0.04699739 0.17859009 0.0 0.028198436 0.11279374 0.009399478 -0.22558749 -0.18798956 0.18798956 -0.037597913 0.31958225 0.05639687 0.31018278 -0.09399478 0.14099218
000040 06 06 f8 fd f4 fd 0c f5 16 22 f0 3b 1b 1a fe 1e
       0.05639687 0.05639687 -0.07519583 -0.028198436 -0.11279374 -0.028198436 0.11279374 -0.10339426 0.20678852 0.31958225 -0.15039165 0.55456924 0.2537859 0.24438643 -0.018798957 0.28198436
000050 05 1b 0d f2 10 1b 1a 27 09 18 f0 fc 11 fd 09 0f
       0.04699739 0.2537859 0.12219322 -0.13159269 0.15039165 0.2537859 0.24438643 0.36657965 0.08459531 0.22558749 -0.15039165 -0.037597913 0.15979113 -0.028198436 0.08459531 0.14099218
000060 15 01 ff 02 1a ea f9 ee 13 0f 11 fb 08 18 08 3c
       0.19738905 0.009399478 -0.009399478 0.018798957 0.24438643 -0.20678852 -0.065796345 -0.16919062 0.17859009 0.14099218 0.15979113 -0.04699739 0.07519583 0.22558749 0.07519583 0.5639687
000070 c2 0f 0c 03 14 1b 32 52 09 24 fe 01 12 06 1f ea
       -0.58276767 0.14099218 0.11279374 0.028198436 0.18798956 0.2537859 0.46997392 0.7707572 0.08459531 0.33838123 -0.018798957 0.009399478 0.16919062 0.05639687 0.29138383 -0.20678852
000080 0c ff 38 0f de 08 e8 28 00 1f e9 fd 0a f7 02 07
       0.11279374 -0.009399478 0.52637076 0.14099218 -0.31958225 0.07519583 -0.22558749 0.37597913 0.0 0.29138383 -0.216188 -0.028198436 0.09399478 -0.08459531 0.018798957 0.065796345
000090 e3 05 f3 0e f2 f5 3b 42 f5 46 01 05 2d fc 27 1e
       -0.2725849 0.04699739 -0.12219322 0.13159269 -0.13159269 -0.10339426 0.55456924 0.62036556 -0.10339426 0.65796345 0.009399478 0.04699739 0.42297652 -0.037597913 0.36657965 0.28198436
0000a0 03 fa 26 dc 17 05 fc 18 06 09 33 10 f3 04 f7 dc
       0.028198436 -0.05639687 0.35718018 -0.33838123 0.216188 0.04699739 -0.037597913 0.22558749 0.05639687 0.08459531 0.4793734 0.15039165 -0.12219322 0.037597913 -0.08459531 -0.33838123
0000b0 09 07 fc ff fd fa d6 25 0b 19 13 fc 0a 0c f7 01
       0.08459531 0.065796345 -0.037597913 -0.009399478 -0.028198436 -0.05639687 -0.3947781 0.3477807 0.10339426 0.23498696 0.17859009 -0.037597913 0.09399478 0.11279374 -0.08459531 0.009399478
0000c0 12 13 23 eb f7 0e f9 21 ff 05 da fd fb 14 fc 1d
       0.16919062 0.17859009 0.32898173 -0.19738905 -0.08459531 0.13159269 -0.065796345 0.31018278 -0.009399478 0.04699739 -0.35718018 -0.028198436 -0.04699739 0.18798956 -0.037597913 0.2725849
0000d0 ff 1f 08 cd f9 f9 fd 0c e6 fc f7 07 0d fd 13 ef
       -0.009399478 0.29138383 0.07519583 -0.4793734 -0.065796345 -0.065796345 -0.028198436 0.11279374 -0.24438643 -0.037597913 -0.08459531 0.065796345 0.12219322 -0.028198436 0.17859009 -0.15979113
0000e0 fb 2c ef 11 1e 1a 13 19 ec e9 ec 06 df 0f d7 2b
       -0.04699739 0.41357705 -0.15979113 0.15979113 0.28198436 0.24438643 0.17859009 0.23498696 -0.18798956 -0.216188 -0.18798956 0.05639687 -0.31018278 0.14099218 -0.3853786 0.40417758
0000f0 fc fb 09 16 08 ec 0d 02 15 1e f4 f8 04 ed fe ff
       -0.037597913 -0.04699739 0.08459531 0.20678852 0.07519583 -0.18798956 0.12219322 0.018798957 0.19738905 0.28198436 -0.11279374 -0.07519583 0.037597913 -0.17859009 -0.018798957 -0.009399478

sequential_25/dense_77/MatMul i1 [23, 50] scale=0.010848821 zero_point=0
000000 ee 0a d7 15 ef 08 e5 f8 15 18 13 e2 0e e2 0b d3
       -0.19527878 0.10848821 -0.44480166 0.22782524 -0.18442996 0.08679057 -0.29291818 -0.08679057 0.22782524 0.2603717 0.2061276 -0.32546464 0.1518835 -0.32546464 0.11933703 -0.48819694
000010 2c e2 e2 f9 de df 29 1d 02 06 da 05 fa 04 fa 17
       0.47734812 -0.32546464 -0.32546464 -0.07594175 -0.36885992 -0.3580111 0.44480166 0.31461582 0.021697642 0.06509293 -0.4122552 0.054244105 -0.06509293 0.043395285 -0.06509293 0.24952288
000020 ea e7 dd 03 ef de eb df 05 21 c1 e0 ff 1e 17 0b
       -0.23867406 -0.27122054 -0.37970874 0.032546464 -0.18442996 -0.36885992 -0.22782524 -0.3580111 0.054244105 0.3580111 -0.68347573 -0.34716228 -0.010848821 0.32546464 0.24952288 0.11933703
000030 07 f1 e2 cc ee ff 28 fd 0d e5 fe 1a e5 ed e6 cf
       0.07594175 -0.16273232 -0.32546464 -0.5641387 -0.19527878 -0.010848821 0.43395284 -0.032546464 0.14103468 -0.29291818 -0.021697642 0.28206936 -0.29291818 -0.2061276 -0.28206936 -0.53159225
000040 fa 1a 1b e8 14 d1 04 f7 21 c0 c7 1c 2d e5 fe 27
       -0.06509293 0.28206936 0.29291818 -0.2603717 0.21697642 -0.5098946 0.043395285 -0.09763939 0.3580111 -0.69432455 -0.6183828 0.303767 0.48819694 -0.29291818 -0.021697642 0.42310402
000050 23 06 cf da f3 e7 f6 f4 f2 fd d3 f9 cb e7 d6 19
       0.37970874 0.06509293 -0.53159225 -0.4122552 -0.14103468 -0.27122054 -0.10848821 -0.13018586 -0.1518835 -0.032546464 -0.48819694 -0.07594175 -0.57498753 -0.27122054 -0.45565048 0.27122054
000060 ec 21 10 e0 f1 14 fa fc 03 27 ee 07 03 ee f3 1c
       -0.21697642 0.3580111 0.17358114 -0.34716228 -0.16273232 0.21697642 -0.06509293 -0.043395285 0.032546464 0.42310402 -0.19527878 0.07594175 0.032546464 -0.19527878 -0.14103468 0.303767
000070 df 14 f2 1b e0 ed 17 06 1a fb e4 f7 ed 00 26 b6
       -0.3580111 0.21697642 -0.1518835 0.29291818 -0.34716228 -0.2061276 0.24952288 0.06509293 0.28206936 -0.054244105 -0.303767 -0.09763939 -0.2061276 0.0 0.4122552 -0.80281276
000080 e6 ef 0c 10 fe e1 df 0a f8 eb 1f f8 f8 10 ec 1f
       -0.28206936 -0.18442996 0.13018586 0.17358114 -0.021697642 -0.33631346 -0.3580111 0.10848821 -0.08679057 -0.22782524 0.33631346 -0.08679057 -0.08679057 0.17358114 -0.21697642 0.33631346
000090 ef 02 f9 f7 f8 d6 f0 ee d6 09 23 ea 38 ec f2 1b
       -0.18442996 0.021697642 -0.07594175 -0.09763939 -0.08679057 -0.45565048 -0.17358114 -0.19527878 -0.45565048 0.09763939 0.37970874 -0.23867406 0.607534 -0.21697642 -0.1518835 0.29291818
0000a0 00 27 07 ee 22 fd da d3 e9 ed 06 f2 1d 08 c6 c8
       0.0 0.42310402 0.07594175 -0.19527878 0.36885992 -0.032546464 -0.4122552 -0.48819694 -0.24952288 -0.2061276 0.06509293 -0.1518835 0.31461582 0.08679057 -0.62923163 -0.607534
0000b0 c2 f6 04 17 0a 07 f7 1e 14 04 ce d7 e3 de 04 e1
       -0.6726269 -0.10848821 0.043395285 0.24952288 0.10848821 0.07594175 -0.09763939 0.32546464 0.21697642 0.043395285 -0.54244107 -0.44480166 -0.31461582 -0.36885992 0.043395285 -0.33631346
0000c0 0f e4 f8 1d e4 00 0b fb f4 d6 0b 17 ec 13 20 1b
       0.16273232 -0.303767 -0.08679057 0.31461582 -0.303767 0.0 0.11933703 -0.054244105 -0.13018586 -0.45565048 0.11933703 0.24952288 -0.21697642 0.2061276 0.34716228 0.29291818
0000d0 f9 0f 09 d2 e3 dd f8 fe 04 c7 0d f6 d7 02 e6 d4
       -0.07594175 0.16273232 0.09763939 -0.49904576 -0.31461582 -0.37970874 -0.08679057 -0.021697642 0.043395285 -0.6183828 0.14103468 -0.10848821 -0.44480166 0.021697642 -0.28206936 -0.47734812
0000e0 f2 cb 15 11 13 01 06 d2 ee e5 dd ff 03 c2 ec 09
       -0.1518835 -0.57498753 0.22782524 0.18442996 0.2061276 0.010848821 0.06509293 -0.49904576 -0.19527878 -0.29291818 -0.37970874 -0.010848821 0.032546464 -0.6726269 -0.21697642 0.09763939
0000f0 06 c1 cf e6 29 12 e0 22 04 2e 10 24 15 1f 01 01
       0.06509293 -0.68347573 -0.53159225 -0.28206936 0.44480166 0.19527878 -0.34716228 0.36885992 0.043395285 0.49904576 0.17358114 0.39055756 0.22782524 0.33631346 0.010848821 0.010848821
