model/keypoint_classifier/keypoint_classifier.tflite (tflite, 32144 bytes, 8 tensors)

sequential_1/dense_7/BiasAdd/ReadVariableOp f4 [71]
-0.13390721 0.37947315 0.17570524 -0.03056377 0.22597633 -0.05460357 0.14214309 -0.09806431
-0.0440058 0.12346293 0.10060714 -0.057627894 -0.13292727 -0.37343538 0.12963066 -0.10547728
0.1297963 0.05969323 -0.21756288 -0.14338568 0.45961565 -0.013761819 -0.3387 -0.17209263
-0.11726599 -0.21300091 0.053990178 0.32345542 0.20850097 -0.008901197 0.27094978 0.66525
0.49986088 0.17438315 -0.11521886 0.1311583 0.13943373 -0.05097407 0.091896355 -0.0550113
-0.012058718 0.08448337 0.19403318 -0.045872863 -0.022739451 -0.5452346 0.3216136 -0.28934693
-0.43418488 -0.24077016 0.11063812 -0.61183196 -0.036705643 0.07026201 0.010991996 -0.5806407
0.10723514 -0.4236661 -0.3329221 -0.006013249 -0.09674661 -0.06633329 -0.3239055 -0.43000507
0.11094467 -0.15929696 -0.083268106 -0.39992756 -0.009515446 0.3165702 0.28838202
00000000: f91e 09be 4e4a c23e 13ec 333e df60 fabc
00000010: 5766 673e fea7 5fbd f58d 113e f1d5 c8bd
00000020: 6d3f 34bd 22da fc3d 1e0b ce3d 3a0b 6cbd
00000030: 161e 08be ec32 bfbe e6bd 043e 7904 d8bd
00000040: 52e9 043e e380 743d cec8 5ebe b2d3 12be
00000050: be52 eb3e 4179 61bc 166a adbe 0d39 30be
00000060: 2729 f0bd e91c 5abe ce24 5d3d f39b a53e
00000070: 4781 553e 54d6 11bc eeb9 8a3e d34d 2a3f
00000080: c4ed ff3e 7f91 323e def7 ebbd 5d4e 063e
00000090: b7c7 0e3e 30ca 50bd 2834 bc3d 8753 61bd
000000a0: ee91 45bc 9e05 ad3d a2b0 463e 2fe5 3bbd
000000b0: 1648 babc 7f94 0bbf 8aaa a43e 4825 94be
000000c0: 7b4d debe 748c 76be 3d96 e23d 05a1 1cbf
000000d0: a858 16bd 87e5 8f3d c617 343c dea4 14bf
000000e0: 199e db3d c3ea d8be c474 aabe ca0a c5bb
000000f0: 1623 c6bd bfd9 87bd f1d6 a5be a029 dcbe
00000100: f636 e33d be1e 23be 7888 aabd 4ec3 ccbe
00000110: ace6 1bbc 7d15 a23e cfa6 933e

sequential_1/dense_6/BiasAdd/ReadVariableOp f4 [50]
-0.42785096 -0.3674584 -0.24508081 -0.26367003 0.30926692 0.49624854 0.38055617 -0.068957545
0.23504329 0.49880803 0.37169495 0.02532328 0.14060785 0.2005649 0.45901754 -0.083296366
0.54661715 0.2809328 0.6724005 -0.4076435 0.48983496 -0.061916012 0.5658034 0.19074406
0.40692356 -0.105905555 0.49879712 0.49646273 0.09006427 0.15789603 -0.23605338 -0.07633731
0.8234781 -0.051192988 -0.079350054 0.43431333 0.49144676 0.17013343 0.1461238 -0.32857758
0.84186924 0.05029735 0.07478055 -0.37143588 0.066853024 -0.05854031 0.09599591 0.5851966
0.31369355 -0.31328008
00000000: 480f dbbe 8223 bcbe 77f6 7abe c2ff 86be
00000010: 3c58 9e3e 4a14 fe3e 42d8 c23e 9d39 8dbd
00000020: 30af 703e c463 ff3e cd4e be3e c472 cf3c
00000030: 81fb 0f3e e360 4d3e 5904 eb3e 4997 aabd
00000040: 1aef 0b3f 6dd6 8f3e 7022 2c3f a6b6 d0be
00000050: a6cb fa3e a59b 7dbd 7ed8 103f 6952 433e
00000060: 4958 d03e 03e5 d8bd 5662 ff3e 5d30 fe3e
00000070: 9e73 b83d 7faf 213e fab7 71be bc56 9cbd
00000080: 76cf 523f bdaf 51bd 4882 a2bd 515e de3e
00000090: e99e fb3e 7537 2e3e 7aa1 153e 523b a8be
000000a0: be84 573f 9804 4e3d 8c26 993d d82c bebe
000000b0: 3dea 883d f7c7 6fbd 8199 c43d 72cf 153f
000000c0: 719c a03e 3f66 a0be

sequential_1/dense_5/BiasAdd/ReadVariableOp f4 [120]
-0.31381375 -0.118259124 0.09230202 0.2799067 -0.2007237 0.08063598 0.3151145 0.14075969
-0.12409389 0.34487814 0.018688397 0.042028047 -0.0424912 0.24137995 0.4427253 -0.05645635
-0.20112759 -0.09635777 0.0405497 0.2530332 0.33974886 -0.16015306 -0.09508302 -0.09608595
0.21864331 0.2140847 -0.049016807 0.16657686 0.011539327 0.12057334 0.06576009 -0.098508365
-0.08740146 -0.14503707 -0.32356974 0.17942032 0.17203489 0.0826334 0.4118129 -0.042519853
0.3601186 0.24313067 -0.25315145 0.11857179 -0.041216817 0.16669811 -0.17124312 0.37256473
-0.012273291 -0.118434675 -0.09514879 -0.15907556 -0.2033881 -0.25354624 0.31953168 -0.24365258
0.031330843 0.09934254 0.46388632 0.40837404 0.39319724 0.16246296 -0.041688062 0.016650742
0.30342633 -0.09520596 -0.09611773 0.15069579 0.13884422 -0.07638976 0.08132929 -0.04065473
0.077128716 -0.115117624 -0.019050717 -0.019996176 -0.18480495 0.33049124 0.072507374 0.19773847
0.14678225 0.12691306 -0.012490608 0.483936 0.25154305 -0.004245263 -0.16361928 0.44726926
0.1394961 0.12929563 0.3734778 -0.18259777 -0.12830947 -0.16491702 0.0006551174 -0.2603129
-0.021887904 0.17483754 0.10718742 -0.15073752 0.11753501 -0.20282316 -0.08697679 0.17921244
0.07652724 -0.19059764 0.1409619 0.071584806 0.09454795 0.13107353 0.043920215 0.18746173
-0.025922226 0.16494763 0.08630764 0.13609996 -0.24143039 -0.1781557 -0.07416706 0.09814369
00000000: 32ac a0be d731 f2bd d708 bd3d ee4f 8f3e
00000010: 838a 4dbe 7a24 a53d b056 a13e 4f23 103e
00000020: f024 febd de93 b03e 6918 993c 9a25 2c3d
00000030: 410b 2ebd 4e2c 773e e4ac e23e c63e 67bd
00000040: 64f4 4dbe 3957 c5bd 7117 263d 918d 813e
00000050: 90f3 ad3e 2aff 23be e3ba c2bd b6c8 c4bd
00000060: 08e4 5f3e 0539 5b3e d9c5 48bd 2093 2a3e
00000070: 720f 3d3c 28ef f63d 3aad 863d c1be c9bd
00000080: 89ff b2bd 9984 14be efaa a5be f6b9 373e
00000090: ea29 303e b33b a93d 24d9 d23e 4c29 2ebd
000000a0: 7761 b83e 3ff7 783e 119d 81be c4d5 f23d
000000b0: f7d2 28bd e9b2 2a3e 5b5a 2fbe cec0 be3e
000000c0: ea15 49bc e18d f2bd 5edd c2bd b4e4 22be
000000d0: f844 50be d0d0 81be a899 a33e 1080 79be
000000e0: c554 003d 1a74 cb3d 8282 ed3e 6716 d13e
000000f0: 2651 c93e b15c 263e 1ac1 2abd 2367 883c
00000100: b25a 9b3e 58fb c2bd 5fd9 c4bd ff4f 1a3e
00000110: 2e2d 0e3e 3c72 9cbd f98f a63d 9385 26bd
00000120: a9f5 9d3d cac2 ebbd 4010 9cbc 05cf a3bc
00000130: 823d 3dbe 2636 a93e bf7e 943d f47b 4a3e
00000140: 164e 163e 7ff5 013e 68a5 4cbc 76c6 f73e
00000150: 40ca 803e d91b 8bbb d08b 27be 7a00 e53e
00000160: 11d8 0e3e 1366 043e 7b38 bf3e e9fa 3abe
00000170: 8f63 03be 02e0 28be 2fbc 2b3a bc47 85be
00000180: 434e b3bc 9d08 333e 1485 db3d f05a 1abe
00000190: 32b6 f03d e0b0 4fbe e320 b2bd 7783 373e
000001a0: 50ba 9c3d 072c 43be 5158 103e 0e9b 923d
000001b0: 5ba2 c13d 2438 063e afe5 333d f8f5 3f3e
000001c0: d95a d4bc 08e8 283e 0fc2 b03d ca5d 0b3e
000001d0: 8739 77be 736e 36be e6e4 97bd 8fff c83d

sequential_1/dense_4/BiasAdd/ReadVariableOp f4 [90]
-0.18055682 -0.14464945 -0.25260502 -0.093762554 -0.044713635 0.022073967 0.07423126 0.104691364
-0.2175189 -0.02213779 -0.22375558 0.046125557 -0.16085212 -0.04918109 -0.061989516 -0.187766
-0.25518075 0.001857138 -0.15939619 -0.011034612 -0.15089753 -0.070086546 -0.05839785 -0.013061944
-0.09763048 -0.18694183 -0.050725657 0.01842494 -0.01162139 0.024095153 -0.22318442 -0.013844192
-0.21620713 -0.15204883 -0.004046065 -0.0259494 -0.20251286 -0.16755223 -0.12349526 -0.1144756
-0.12895615 -0.2557612 -0.20357661 0.16425054 -0.06802548 0.121493965 0.104364514 -0.092903435
-0.092649765 -0.096788585 -0.11589386 -0.15858184 0.036288586 -0.17255573 -0.09865054 -0.29135266
-0.049886048 -0.1739001 -0.20111689 -0.025031762 -0.31789303 -0.13912877 -0.11775926 -0.033860322
-0.09196135 0.0047185766 -0.0006172142 0.093184486 0.00493899 -0.11894092 -0.012061945 -0.14441228
0.015441207 0.14415403 -0.095070474 -0.09394428 -0.07750376 -0.12731645 -0.17267394 0.012523315
0.08762523 -0.04876084 -0.24537706 0.074839726 0.049807534 -0.08273792 -0.2222989 0.007206176
-0.023349414 0.035815552
00000000: e3e3 38be fc1e 14be 7255 81be 9506 c0bd
00000010: a525 37bd 77d4 b43c 8f06 983d 6d68 d63d
00000020: 46bd 5ebe 505a b5bc 2f20 65be 27ee 3c3d
00000030: 6bb6 24be 1c72 49bd b8e8 7dbd bb45 40be
00000040: 0da7 82be 366b f33a c138 23be 84ca 34bc
00000050: e284 1abe 8989 8fbd 9532 6fbd c401 56bc
00000060: 7df2 c7bd ae6d 3fbe b5c5 4fbd e6ef 963c
00000070: a467 3ebc 3363 c53c 758a 64be c0d2 62bc
00000080: 6765 5dbe b0b2 1bbe da94 84bb d693 d4bc
00000090: 885f 4fbe d092 2bbe 15eb fcbd 2f72 eabd
000000a0: 150d 04be 22f3 82be 6376 50be 4b31 283e
000000b0: f150 8bbd d4d1 f83d 10bd d53d 2844 bebd
000000c0: 29bf bdbd 1839 c6bd c359 edbd 4763 22be
000000d0: 57a3 143d 73b2 30be 4b09 cabd 2d2c 95be
000000e0: 5055 4cbd de12 32be 96f1 4dbe 690f cdbc
000000f0: e0c2 a2be c677 0ebe c42b f1bd 1fb1 0abd
00000100: 3b56 bcbd 4a9e 9a3b 8bcc 21ba 82d7 be3d
00000110: 40d7 a13b 4c97 f3bd 779f 45bc d0e0 13be
00000120: 1efd 7c3c 1d9d 133e 4fb4 c2bd dc65 c0bd
00000130: 4bba 9ebd 3e5f 02be 70d1 30be 972e 4d3c
00000140: db74 b33d 72b9 47bd 2044 7bbe 9245 993d
00000150: fc02 4c3d 8072 a9bd 53a2 63be c921 ec3b
00000160: 4547 bfbc 54b3 123d

sequential_1/dense_4/MatMul i1 [90, 86] scale=0.013499288 zero_point=0
-0.09449501 -0.5534708 0.06749644 -0.20248932 0.17549074 0.1079943 0.12149359 0.026998576
0.013499288 0.16199145 0.29698434 0.013499288 0.16199145 -0.06749644 -0.026998576 -0.2294879
0.26998577 -0.05399715 0.2159886 -0.14849217 -0.09449501 0.05399715 -0.05399715 0.05399715
-0.026998576 -0.04049786 -0.1079943 0.09449501 -0.14849217 -0.09449501 -0.16199145 -0.2159886
-0.05399715 0.05399715 0.0 -0.08099572 0.05399715 -0.26998577 0.16199145 0.013499288
0.026998576 -0.20248932 0.04049786 -0.013499288 -0.16199145 0.49947366 -0.1079943 0.4454765
-0.1079943 0.2294879 -0.09449501 0.5264722 -0.14849217 0.6614651 0.04049786 0.1079943
0.60746795 -0.2159886 0.41847792 -0.49947366 -0.04049786 -0.985448 -0.013499288 0.12149359
0.06749644 0.1079943 0.013499288 0.04049786 -0.26998577 -0.28348505 -0.18899003 0.31048363
-0.12149359 0.25648648 -0.04049786 0.1079943 -0.26998577 -0.09449501 0.09449501 0.25648648
-0.13499288 0.14849217 -0.1079943 0.09449501 -0.2159886 0.09449501 0.05399715 -1.1204408
0.026998576 0.08099572 -0.28348505 0.06749644 -0.14849217 0.1079943 -0.28348505 -0.05399715
-0.20248932 -0.05399715 -0.17549074 0.26998577 -0.06749644 0.05399715 -0.14849217 -0.18899003
0.013499288 -0.08099572 0.13499288 0.26998577 0.06749644 -0.20248932 -0.08099572 -0.026998576
0.25648648 0.026998576 0.2294879 0.31048363 0.0 0.0 0.14849217 -0.12149359
0.2159886 -0.24298719 0.20248932 0.13499288 -0.04049786 -0.026998576 0.16199145 -0.08099572
0.05399715 -0.12149359 -0.08099572 0.04049786 -0.026998576 0.04049786 0.28348505 0.17549074
0.49947366 -0.2159886 0.71546227 -0.3239829 0.026998576 0.40497863 -0.026998576 0.53997153
-0.04049786 0.35098147 -0.013499288 0.13499288 0.0 0.29698434 0.3239829 0.2159886
-0.04049786 -0.18899003 -0.71546227 -0.2159886 0.18899003 0.18899003 0.29698434 -0.013499288
-0.05399715 -0.1079943 -0.39147934 -0.37798005 0.14849217 -0.04049786 0.29698434 0.18899003
-0.08099572 0.013499288 0.06749644 -0.36448076 0.0 -0.2159886 -0.2294879 -0.09449501
-0.05399715 0.0 -0.026998576 -0.09449501 0.09449501 0.13499288 -0.16199145 0.05399715
-0.04049786 0.0 -0.1079943 0.13499288 0.2159886 0.2294879 -0.013499288 0.49947366
-0.14849217 0.12149359 -0.13499288 0.09449501 0.18899003 0.08099572 0.14849217 -0.05399715
0.13499288 -0.12149359 0.026998576 -0.16199145 -0.05399715 0.013499288 0.026998576 -0.09449501
-0.16199145 -0.13499288 -0.05399715 0.08099572 -0.09449501 0.013499288 -0.1079943 -0.06749644
0.04049786 0.2159886 0.17549074 0.026998576 0.36448076 0.04049786 0.2159886 -0.2159886
0.12149359 -0.13499288 0.5669701 0.13499288 0.3239829 0.2159886 0.2159886 0.58046937
0.08099572 0.67496437 0.3239829 0.28348505 0.13499288 0.0 -0.18899003 -0.25648648
-0.39147934 -0.29698434 0.4589758 0.24298719 0.0 -0.2159886 -0.3239829 -0.2294879
-0.4319772 -0.31048363 0.28348505 0.09449501 -0.16199145 -0.026998576 -0.28348505 -0.2294879
00000000: f9d7 05f1 0d08 0902 010c 1601 0cfb feef
00000010: 14fc 10f5 f904 fc04 fefd f807 f5f9 f4f0
00000020: fc04 00fa 04ec 0c01 02f1 03ff f425 f821
00000030: f811 f927 f531 0308 2df0 1fdb fdb7 ff09
00000040: 0508 0103 eceb f217 f713 fd08 ecf9 0713
00000050: f60b f807 f007 04ad 0206 eb05 f508 ebfc
00000060: f1fc f314 fb04 f5f2 01fa 0a14 05f1 fafe
00000070: 1302 1117 0000 0bf7 10ee 0f0a fdfe 0cfa
00000080: 04f7 fa03 fe03 150d 25f0 35e8 021e fe28
00000090: fd1a ff0a 0016 1810 fdf2 cbf0 0e0e 16ff
000000a0: fcf8 e3e4 0bfd 160e fa01 05e5 00f0 eff9
000000b0: fc00 fef9 070a f404 fd00 f80a 1011 ff25
000000c0: f509 f607 0e06 0bfc 0af7 02f4 fc01 02f9
000000d0: f4f6 fc06 f901 f8fb 0310 0d02 1b03 10f0
000000e0: 09f6 2a0a 1810 102b 0632 1815 0a00 f2ed
000000f0: e3ea 2212 00f0 e8ef e0e9 1507 f4fe ebef

sequential_1/dense_5/MatMul i1 [120, 90] scale=0.012526352 zero_point=0
-0.23800069 0.07515811 0.050105408 0.17536893 0.21294798 0.08768447 0.012526352 -0.15031622
-0.025052704 0.20042163 -0.41336963 0.3131588 -0.22547433 0.16284257 0.050105408 -0.8016865
-0.15031622 -0.20042163 0.025052704 -0.025052704 0.0 0.12526351 -0.41336963 0.3632642
-0.16284257 -0.6137912 -0.100210816 -0.676423 0.25052702 0.037579056 0.35073787 -0.21294798
0.062631756 0.012526352 0.025052704 0.41336963 -0.16284257 0.037579056 -0.18789528 0.012526352
0.18789528 0.07515811 -0.08768447 0.35073787 0.3131588 0.0 0.062631756 0.012526352
0.062631756 0.100210816 0.16284257 0.18789528 0.025052704 0.30063245 0.3131588 -0.6263176
-0.3131588 0.30063245 -0.012526352 -0.51358044 -0.23800069 0.025052704 -0.17536893 -0.27557975
-0.15031622 0.8517919 0.012526352 0.3883169 -0.42589596 0.025052704 0.3131588 0.037579056
-0.025052704 -0.18789528 0.025052704 0.22547433 -0.5386331 0.062631756 -0.27557975 0.037579056
-0.22547433 -0.25052702 0.18789528 0.08768447 0.037579056 0.025052704 0.15031622 -0.16284257
-0.18789528 0.07515811 0.07515811 -0.062631756 -0.012526352 -0.40084326 0.15031622 0.3382115
-0.3131588 0.17536893 0.07515811 0.20042163 0.025052704 0.050105408 0.07515811 0.037579056
-0.050105408 -0.07515811 0.025052704 0.0 -0.12526351 -0.12526351 0.3883169 -0.025052704
-0.08768447 0.18789528 -0.062631756 0.037579056 -0.27557975 -0.07515811 0.23800069 0.025052704
0.12526351 -0.22547433 -0.07515811 -0.676423 -0.7140021 0.13778988 -0.012526352 -0.15031622
0.100210816 -0.07515811 0.100210816 0.112737164 0.17536893 0.17536893 0.112737164 0.15031622
0.50105405 0.18789528 -0.100210816 -0.062631756 0.025052704 0.28810608 -0.51358044 -0.037579056
0.21294798 -0.3382115 -0.050105408 0.17536893 0.08768447 -0.51358044 0.18789528 -0.100210816
-0.50105405 0.20042163 0.100210816 0.6638967 -0.050105408 0.17536893 0.062631756 -0.2630534
-0.12526351 -0.8643183 -0.21294798 -0.20042163 0.100210816 -0.12526351 -0.012526352 0.012526352
-0.75158113 -0.17536893 -0.08768447 -0.41336963 0.012526352 0.21294798 -0.22547433 -0.22547433
-0.012526352 -0.51358044 0.112737164 -0.23800069 0.3883169 -0.112737164 -0.025052704 -0.28810608
0.025052704 -0.062631756 -0.15031622 0.07515811 0.0 0.08768447 0.037579056 -0.28810608
-0.08768447 0.12526351 0.18789528 0.22547433 0.2630534 0.13778988 0.16284257 -0.3382115
0.3131588 0.062631756 0.025052704 -1.0522135 -0.100210816 0.07515811 0.025052704 0.062631756
0.037579056 -0.037579056 -0.037579056 0.062631756 -0.012526352 -0.30063245 -0.21294798 0.37579057
0.025052704 -0.56368583 0.07515811 0.08768447 -0.20042163 0.17536893 0.100210816 0.062631756
-0.012526352 0.15031622 0.28810608 -0.12526351 -0.21294798 -0.012526352 0.3131588 0.07515811
-0.12526351 -0.025052704 -0.3382115 -0.012526352 -0.050105408 -0.7891602 0.15031622 0.42589596
-0.012526352 -0.08768447 0.012526352 -0.100210816 0.037579056 -0.32568514 0.30063245 0.15031622
-0.037579056 -0.13778988 -0.22547433 -0.46347502 -0.92695004 -0.17536893 -0.25052702 -0.100210816
00000000: ed06 040e 1107 01f4 fe10 df19 ee0d 04c0
00000010: f4f0 02fe 000a df1d f3cf f8ca 1403 1cef
00000020: 0501 0221 f303 f101 0f06 f91c 1900 0501
00000030: 0508 0d0f 0218 19ce e718 ffd7 ed02 f2ea
00000040: f444 011f de02 1903 fef1 0212 d505 ea03
00000050: eeec 0f07 0302 0cf3 f106 06fb ffe0 0c1b
00000060: e70e 0610 0204 0603 fcfa 0200 f6f6 1ffe
00000070: f90f fb03 eafa 1302 0aee faca c70b fff4
00000080: 08fa 0809 0e0e 090c 280f f8fb 0217 d7fd
00000090: 11e5 fc0e 07d7 0ff8 d810 0835 fc0e 05eb
000000a0: f6bb eff0 08f6 ff01 c4f2 f9df 0111 eeee
000000b0: ffd7 09ed 1ff7 fee9 02fb f406 0007 03e9
000000c0: f90a 0f12 150b 0de5 1905 02ac f806 0205
000000d0: 03fd fd05 ffe8 ef1e 02d3 0607 f00e 0805
000000e0: ff0c 17f6 efff 1906 f6fe e5ff fcc1 0c22
000000f0: fff9 01f8 03e6 180c fdf5 eedb b6f2 ecf8

sequential_1/dense_6/MatMul i1 [50, 120] scale=0.012842883 zero_point=0
-0.064214416 0.32107207 0.1541146 -0.24401478 0.21832901 0.17980036 -0.012842883 0.11558595
0.1541146 0.20548613 -0.051371533 -0.08990018 0.03852865 -0.012842883 0.03852865 -0.08990018
0.21832901 0.051371533 -0.21832901 -0.26970056 0.0 0.26970056 -0.14127171 0.0770573
0.24401478 -0.025685767 0.025685767 0.11558595 0.14127171 0.16695748 -0.32107207 0.11558595
0.26970056 -0.025685767 0.0770573 0.10274307 0.20548613 -0.03852865 0.012842883 0.26970056
-0.064214416 -0.051371533 0.10274307 -0.65498704 0.26970056 0.0 0.17980036 -0.47518668
-0.03852865 0.2953863 -0.1541146 0.14127171 0.26970056 0.16695748 -0.11558595 0.0770573
-0.064214416 0.1541146 -0.025685767 0.14127171 0.0 0.12842883 -0.21832901 -0.064214416
-0.051371533 -0.1541146 0.26970056 0.025685767 -0.2953863 -0.10274307 -0.5394011 0.57792974
0.19264325 -0.19264325 0.03852865 0.16695748 0.32107207 0.25685766 0.17980036 -0.16695748
0.17980036 -0.051371533 -0.21832901 -0.14127171 0.28254342 0.16695748 0.03852865 0.03852865
0.34675786 -0.03852865 -0.41097227 0.03852865 -0.4623438 0.025685767 -0.08990018 0.19264325
0.0770573 -0.0770573 -0.35960072 -0.08990018 0.16695748 0.08990018 0.11558595 0.5265582
-0.025685767 0.1541146 0.16695748 -0.33391497 0.08990018 0.025685767 0.0770573 -0.14127171
-0.012842883 -0.2953863 0.41097227 0.051371533 0.11558595 0.2311719 0.10274307 0.10274307
-0.2311719 -0.552244 -0.012842883 -0.26970056 0.24401478 -0.20548613 -0.0770573 -0.064214416
0.0 -0.2311719 -0.051371533 0.2311719 0.26970056 -0.770573 0.34675786 -0.16695748
0.12842883 -0.19264325 -0.012842883 0.24401478 0.19264325 -0.08990018 0.08990018 -0.025685767
0.03852865 0.2311719 0.12842883 0.2311719 0.2953863 0.1541146 0.03852865 0.4623438
-0.064214416 0.41097227 0.12842883 -0.03852865 0.051371533 0.064214416 0.051371533 0.0
0.12842883 -0.14127171 0.47518668 -0.08990018 -0.20548613 0.051371533 0.0770573 -0.2953863
0.10274307 0.012842883 0.03852865 0.17980036 -0.051371533 -0.14127171 0.11558595 0.0
0.16695748 -0.051371533 -0.16695748 0.3082292 -0.2311719 -1.4127172 0.12842883 0.33391497
0.37244362 0.28254342 -0.14127171 0.1541146 -0.025685767 -0.0770573 0.12842883 -0.11558595
0.051371533 0.11558595 0.64214414 0.2311719 0.064214416 -0.10274307 0.24401478 0.24401478
0.25685766 -0.24401478 0.41097227 -0.43665802 -0.025685767 -0.012842883 0.44950092 -0.35960072
0.064214416 0.2311719 -0.10274307 -0.82194453 1.0145878 0.37244362 0.50087243 0.26970056
0.012842883 0.064214416 -0.051371533 0.12842883 0.19264325 0.14127171 0.21832901 -0.19264325
0.012842883 -0.24401478 0.11558595 -0.11558595 -0.051371533 0.21832901 0.2311719 0.552244
-0.14127171 0.41097227 0.025685767 -0.48802957 -0.064214416 0.11558595 0.025685767 0.064214416
0.10274307 -0.10274307 0.14127171 -0.35960072 0.2311719 -0.051371533 0.26970056 -0.051371533
0.051371533 -0.11558595 0.39812937 0.35960072 -0.2311719 -0.03852865 0.03852865 0.5394011
00000000: fb19 0ced 110e ff09 0c10 fcf9 03ff 03f9
00000010: 1104 efeb 0015 f506 13fe 0209 0b0d e709
00000020: 15fe 0608 10fd 0115 fbfc 08cd 1500 0edb
00000030: fd17 f40b 150d f706 fb0c fe0b 000a effb
00000040: fcf4 1502 e9f8 d62d 0ff1 030d 1914 0ef3
00000050: 0efc eff5 160d 0303 1bfd e003 dc02 f90f
00000060: 06fa e4f9 0d07 0929 fe0c 0de6 0702 06f5
00000070: ffe9 2004 0912 0808 eed5 ffeb 13f0 fafb
00000080: 00ee fc12 15c4 1bf3 0af1 ff13 0ff9 07fe
00000090: 0312 0a12 170c 0324 fb20 0afd 0405 0400
000000a0: 0af5 25f9 f004 06e9 0801 030e fcf5 0900
000000b0: 0dfc f318 ee92 0a1a 1d16 f50c fefa 0af7
000000c0: 0409 3212 05f8 1313 14ed 20de feff 23e4
000000d0: 0512 f8c0 4f1d 2715 0105 fc0a 0f0b 11f1
000000e0: 01ed 09f7 fc11 122b f520 02da fb09 0205
000000f0: 08f8 0be4 12fc 15fc 04f7 1f1c eefd 032a

sequential_1/dense_7/MatMul i1 [71, 50] scale=0.0096661905 zero_point=0
-0.1933238 -0.2803195 -0.5413067 -0.0096661905 -0.5509729 -0.35764906 0.038664762 -0.08699571
-0.08699571 -0.40598 0.23198858 -0.23198858 -0.23198858 -0.13532667 0.08699571 0.24165477
-0.24165477 0.0096661905 -0.560639 -0.12566048 -0.35764906 0.0966619 0.18365762 -0.057997145
-0.077329524 0.11599429 -0.2803195 -0.2803195 -0.5123081 -0.0096661905 -0.0966619 0.24165477
-0.15465905 -0.057997145 -0.057997145 -0.35764906 0.028998572 -0.15465905 -0.1933238 0.27065334
-0.13532667 0.2803195 -0.32865047 0.20299 0.028998572 0.22232237 0.1933238 -0.22232237
0.3093181 0.019332381 -0.15465905 -0.0966619 0.2803195 0.32865047 0.0966619 0.18365762
0.17399143 -0.13532667 -0.67663336 -0.057997145 -0.22232237 0.0 0.15465905 -0.27065334
-0.23198858 0.057997145 -0.1933238 -0.11599429 -0.32865047 0.15465905 -0.28998572 -0.20299
0.0 -0.1933238 -0.39631382 0.11599429 -0.560639 -0.3189843 -0.28998572 0.08699571
-0.21265619 -0.2803195 -0.067663334 -0.077329524 -0.32865047 0.26098713 -0.08699571 0.24165477
-0.20299 0.038664762 -0.32865047 0.36731523 0.26098713 -0.019332381 0.22232237 -0.11599429
-0.11599429 -0.21265619 -0.45431095 -0.11599429 0.18365762 -0.057997145 0.36731523 -0.34798285
0.1933238 0.077329524 0.04833095 0.028998572 0.028998572 0.10632809 -0.28998572 0.3093181
-0.11599429 -0.067663334 -0.13532667 -0.2803195 -0.038664762 -0.24165477 -0.057997145 -0.019332381
-0.15465905 -0.40598 0.32865047 -0.077329524 0.47364333 0.15465905 -0.25132096 0.15465905
-0.2803195 -0.25132096 0.17399143 -0.019332381 -0.17399143 -0.17399143 -0.42531237 0.10632809
0.0 -0.15465905 -0.35764906 0.1933238 0.1933238 -0.067663334 -0.17399143 0.15465905
0.10632809 -0.16432524 -0.24165477 -0.33831668 -0.44464475 -0.53164047 0.1933238 0.21265619
-0.17399143 0.04833095 0.019332381 -0.13532667 -0.057997145 -0.45431095 -0.11599429 -0.15465905
0.10632809 0.16432524 -0.0096661905 -0.5413067 -0.15465905 0.038664762 -0.32865047 0.028998572
0.18365762 0.038664762 -0.019332381 -0.28998572 0.038664762 -0.3093181 -0.11599429 -0.48330954
-0.27065334 -0.3189843 0.077329524 -0.2803195 0.17399143 -0.04833095 -0.20299 0.0966619
0.13532667 0.067663334 0.4156462 0.27065334 -0.4156462 -0.42531237 -0.2803195 0.21265619
0.43497857 -0.0096661905 -0.077329524 -0.40598 -0.16432524 -0.23198858 -0.019332381 -0.3093181
0.067663334 -0.22232237 0.12566048 0.2996519 -0.34798285 0.28998572 -0.067663334 0.067663334
-0.26098713 -0.18365762 0.16432524 0.1933238 0.3866476 -0.028998572 0.028998572 0.2803195
-0.40598 0.36731523 0.057997145 0.028998572 -0.23198858 -0.22232237 0.0966619 -0.23198858
-0.35764906 0.028998572 -0.52197427 -0.3189843 -0.12566048 -0.37698144 0.028998572 0.10632809
-0.13532667 -0.560639 0.15465905 0.077329524 0.22232237 -0.13532667 -0.5123081 -0.1933238
-0.44464475 0.04833095 -0.24165477 -0.33831668 -0.057997145 0.20299 -0.038664762 -0.057997145
-0.43497857 -0.2803195 -0.14499286 -0.057997145 0.0966619 0.22232237 -0.10632809 0.0
00000000: ece3 c8ff c7db 04f7 f7d6 18e8 e8f2 0919
00000010: e701 c6f3 db0a 13fa f80c e3e3 cbff f619
00000020: f0fa fadb 03f0 ec1c f21d de15 0317 14e9
00000030: 2002 f0f6 1d22 0a13 12f2 bafa e900 10e4
00000040: e806 ecf4 de10 e2eb 00ec d70c c6df e209
00000050: eae3 f9f8 de1b f719 eb04 de26 1bfe 17f4
00000060: f4ea d1f4 13fa 26dc 1408 0503 030b e220
00000070: f4f9 f2e3 fce7 fafe f0d6 22f8 3110 e610
00000080: e3e6 12fe eeee d40b 00f0 db14 14f9 ee10
00000090: 0bef e7dd d2c9 1416 ee05 02f2 fad1 f4f0
000000a0: 0b11 ffc8 f004 de03 1304 fee2 04e0 f4ce
000000b0: e4df 08e3 12fb eb0a 0e07 2b1c d5d4 e316
000000c0: 2dff f8d6 efe8 fee0 07e9 0d1f dc1e f907
000000d0: e5ed 1114 28fd 031d d626 0603 e8e9 0ae8
000000e0: db03 cadf f3d9 030b f2c6 1008 17f2 cbec
000000f0: d205 e7dd fa15 fcfa d3e3 f1fa 0a17 f500
