model/keypoint_classifier/keypoint_classifier_v2.tflite (tflite, 24792 bytes, 8 tensors)

sequential_2/dense_9/BiasAdd/ReadVariableOp f4 [50]
00000000: 9087 2a3d ee18 d13d 221b 91bc 6a3f 9eb9
00000010: 5cee 423d 7dae 1d3e 5b0c 513e a23f a93d
00000020: 9b2a 07bc b38d bb3d 9b88 013e 3a49 263e
00000030: 68e4 db3d e5f3 f63d 0944 fd3d 6106 013e
00000040: 005f 153e 99c9 5a3d 0611 0b3d aeec 053e
00000050: e106 063e 8a01 0a3e 3aa7 c8bc 950f b33d
00000060: 680a fc3d 76ba db3d cbcb d53d 7bdc b73d
00000070: f2a3 353e aeaf b33d 1401 cf3d 4626 943d
00000080: f4f1 12bc fe2f 343e 2e55 163e e9ec 473e
00000090: 0e13 953d 60e5 9c3d 4f32 8d3d 3bd2 ba3d
000000a0: b0a3 f93d 14b6 933d 3faf eb3d 642a 073e
000000b0: e6e8 853d a64d 3e3e 6f46 da3d f095 d43b
000000c0: 5897 d13d 84fa 8e3d
0.04163319 0.10209833 -0.017713133 -0.00030183356 0.0475906 0.15398593 0.2041487 0.0826409
-0.008249904 0.09157886 0.12649767 0.16238871 0.107369244 0.12058238 0.12366492 0.1260009
0.14587021 0.053414915 0.03395178 0.13078567 0.13088562 0.1347715 -0.024493802 0.087432064
0.12306672 0.10728924 0.10439261 0.089776 0.17738321 0.087737426 0.101076275 0.072338626
-0.008968819 0.17596433 0.14680931 0.19523968 0.07279025 0.07660937 0.06894361 0.091221295
0.12189424 0.07212463 0.11508035 0.13199764 0.065385625 0.18584308 0.106579654 0.0064876005
0.10233945 0.06981376

sequential_2/dense_8/BiasAdd/ReadVariableOp f4 [100]
00000000: 79bc 873d 7700 523d aa6a a53d 4582 b4bd
00000010: dbc9 d63c 8658 f63d 8e87 993d d9b6 9abd
00000020: fc24 453e 41a2 383d e304 19bd 3d3b f73c
00000030: ca7c 4abd 882d a33d 8784 b73d 00e6 603c
00000040: f12d 993c 3cbe 563d b69e e33d e223 99bc
00000050: 33b9 b23d 4551 663d 432e 123e ae86 263d
00000060: 3bcc a33d d592 5c3d f7f9 d43c 2033 1a3e
00000070: 6d07 843d 96df 643d 6402 d03d 0cb2 05bd
00000080: 578b 7c3d 237a de3c 75ad ff3d 5fa0 f0bd
00000090: 6548 c93b 55a2 8f3d 823c cc3c cf39 4f3e
000000a0: 67ee ac3d 7b69 183d 459d 9b3c 590c 513d
000000b0: 4b7d e33b 6351 363d 6861 4b3d 1ec3 583c
000000c0: bd2c 803d e79c 9ebc 3ca4 e2bc d830 173e
000000d0: ce75 ebbc 4de6 be3d 54af f73d 549e 803c
000000e0: 9884 1a3e 09fd c23d 7c9e d33d 56e3 743d
000000f0: 4984 0d3d ef84 873d 2c67 02bd 1bb1 cd3d
00000100: ca66 013c 1a9b dd3d 7ba8 a53d b474 a43d
00000110: 9709 02bc 55a0 243d 53de 7fbd b0bc 7b3d
00000120: 40e8 c93d 9eef 4e3d eaa9 843d 1196 673d
00000130: 9a4c b33d 8007 b8bc 331b 2a3d 9e7c 573c
00000140: d0f9 fbba ee81 fa3d f438 ccba 458e 713d
00000150: 3253 d63d bf38 a33d ba85 343d f07d 863d
00000160: ec8e a13d 61e4 b3bd 2378 4c3d c176 c93d
00000170: b0a5 663d 14bf 1d3e 5c61 343d 3aaf 65bc
00000180: 1d2e f83c 9217 b93d 5903 7c3c e819 6f3d
0.06627745 0.051269975 0.08076985 -0.088139094 0.026219299 0.12028603 0.07496558 -0.07554407
0.1925239 0.045076612 -0.037358176 0.030179614 -0.049435414 0.07967669 0.089608245 0.013726711
0.018698664 0.052427515 0.11114256 -0.018693868 0.0872673 0.05622985 0.1427546 0.040655784
0.07997938 0.053850967 0.025998099 0.15058565 0.06446729 0.05587729 0.10156706 -0.0326405
0.061656322 0.027157849 0.12484256 -0.11749338 0.0061426633 0.07013384 0.024931196 0.20236896
0.08443909 0.03720997 0.01899589 0.051037166 0.0069424263 0.04451121 0.04965344 0.013230113
0.06258533 -0.019361926 -0.027666204 0.14764726 -0.028742697 0.0932127 0.12093988 0.015700497
0.15089643 0.09520919 0.10332963 0.059787117 0.034549985 0.06617152 -0.031836674 0.10043546
0.007898042 0.10820599 0.08088776 0.08030072 -0.007936857 0.040191967 -0.062467884 0.061459243
0.09858751 0.050521486 0.06477721 0.0565396 0.08754845 -0.022464514 0.041529845 0.01315227
-0.001922423 0.12231813 -0.0015580938 0.05897357 0.10465087 0.07969808 0.044072844 0.065669894
0.07888588 -0.08783794 0.04991926 0.09837104 0.056310356 0.15404922 0.04403816 -0.014018828
0.030295426 0.09037699 0.0153816575 0.058374316

sequential_2/dense_10/BiasAdd/ReadVariableOp f4 [23]
00000000: de15 8fbd cfec 533d 2cde 8fbd 6ade f73c
00000010: 136a 213d 0f4a 343d 9f1f 1bbe 988a 833d
00000020: 862f 833d ef08 3e3d 3fc1 66bd 8c34 603c
00000030: a046 853c 0849 44bd 74a9 d3bb 8c32 91bb
00000040: 9f14 e13c 44d4 00bd 17f5 5c3d 0fdb 04bd
00000050: 87ea 5c3d bf21 893a 1c60 4abd
-0.06986593 0.05173951 -0.07024798 0.030257422 0.0394078 0.04401594 -0.15148781 0.06422919
0.06405549 0.04639524 -0.056336638 0.013684403 0.016269028 -0.04792121 -0.0064594094 -0.0044310745
0.027475653 -0.031452432 0.053944673 -0.032435473 0.0539346 0.0010462328 -0.049408063

sequential_2/dense_7/BiasAdd/ReadVariableOp f4 [80]
00000000: 820a b9bc 993c 9fbc b7f4 7bbd b2fc 15bc
00000010: 2e7a ec3b 2f5d f8bb fa21 7dbd b26d 4ebd
00000020: 199b d6bd a723 bb3c 0f90 99bb c0ec 2bbe
00000030: 7806 b1bd 1b74 41bd 7daa 27be 295a 2bbd
00000040: 2d14 c3ba f308 12bd 0647 d0bc 99ef 383d
00000050: 5c4a cabd eac9 423d 4088 a5bc 229f 5bbc
00000060: 144a c0bd 1c9b 7e39 9741 0ebd 4b59 b8bc
00000070: 7e7a c9bd 26cf bbbd e978 c33c 5802 64bd
00000080: 3101 59bd d69b 703c 7010 283d 44b3 44bd
00000090: ac8c 8abc fc9d eebd 3f2a cd3b 6498 29bd
000000a0: c94d 5ebc 4877 b3bc 719e 6cbd c206 c3bd
000000b0: 8d3a 03bd 9f68 dc3d a07a 40bd d155 4b3d
000000c0: 3514 2fbc 8b3e 0abd a720 283d fd78 80bd
000000d0: 33a9 263c 3fa0 65bc 1c33 523d 97ce 29be
000000e0: ec5b 3bbd 0385 9dbc 25c9 00be be6d 58bd
000000f0: 325d 81be ddc5 9abd b5c9 2b3d 6cfc aebd
00000100: 25c4 f13c 8587 38bd 479a b0bd 2c56 96bd
00000110: cad6 b8bc 1e30 8f3a ea61 63bd a7c2 acbb
00000120: 3144 4ebd d587 78bc 6edc 573d 68de b5bc
00000130: ad7b 35bd 3723 be3d ae1e 663d 13c8 93bd
-0.022588018 -0.019438075 -0.061512675 -0.009154486 0.0072167134 -0.0075794677 -0.06179998 -0.050397582
-0.10478801 0.022844149 -0.0046863626 -0.16789532 -0.08643812 -0.047229867 -0.1637363 -0.04183403
-0.0014883332 -0.035653066 -0.025424492 0.045150373 -0.09877464 0.04755584 -0.02020657 -0.013404639
-0.09389129 0.0002428111 -0.03473052 -0.022503516 -0.09837817 -0.0917037 0.023861365 -0.055666298
-0.05297965 0.014685592 0.0410313 -0.048022524 -0.01691278 -0.11651227 0.0062611396 -0.041405097
-0.01356835 -0.021907464 -0.05776829 -0.09522773 -0.03203826 0.107621424 -0.046991944 0.049642388
-0.01068597 -0.033751052 0.041046765 -0.06273077 0.010172176 -0.014015256 0.051318273 -0.16582714
-0.04574196 -0.019228464 -0.1257673 -0.052839033 -0.25266415 -0.07557271 0.04194041 -0.085442394
0.029512474 -0.045051116 -0.08623176 -0.07340655 -0.022563357 0.0010924374 -0.0555133 -0.005272228
-0.050358 -0.015169104 0.052700453 -0.022200778 -0.0443074 0.092840604 0.056181602 -0.072158955

sequential_2/dense_7/MatMul i1 [80, 86] scale=0.007908327 zero_point=0
00000000: 1484 e7ed eeee 19e3 fef6 eb0f f2f7 00f0
00000010: 270d 06f3 fae2 2cec 1d0b 151a ebfd 18f0
00000020: 031d f123 03e5 0ffe ea1b e7f9 08f9 121b
00000030: 0703 fdf9 0721 06f0 e3f7 cdf4 bdee eafb
00000040: daff fe10 def6 11fd 13fd 1310 2d1a 02ee
00000050: 101a fe1d 25f0 fdf4 09ff 09e4 06ed 0ebb
00000060: dfad d0ea fcd0 131e ce45 c3f5 f3f7 1d2a
00000070: d14c cce2 1de5 3e12 ef3d 0ad7 37e2 3c0c
00000080: 4022 f6fa 0bee fdff eef2 110b f5ec fa0f
00000090: fb0a 0e0b ecf9 13e8 1610 f107 0af5 f505
000000a0: ecf0 f70d 17ea 13ea f2f0 f7f9 e8f6 08fe
000000b0: 0af8 0503 1ffa 04f6 effa fb09 110b fc10
000000c0: 11f3 fa1b 1415 ef1e f5fc 080d ec0e ecf9
000000d0: f3e3 e4fd e504 f617 0719 29f5 0806 241c
000000e0: 2104 1601 2ae4 f402 f0f6 3bff eddf cbde
000000f0: cbed 08f9 0ffd fcf6 ef06 fbf4 e011 0020
0.15816653 -0.9806325 -0.19770816 -0.1502582 -0.14234988 -0.14234988 0.19770816 -0.22934148
-0.015816653 -0.079083264 -0.16607486 0.118624896 -0.110716574 -0.07117494 0.0 -0.12653323
0.30842474 0.102808245 0.04744996 -0.102808245 -0.04744996 -0.23724979 0.34796637 -0.15816653
0.22934148 0.08699159 0.16607486 0.20561649 -0.16607486 -0.02372498 0.18979985 -0.12653323
0.02372498 0.22934148 -0.118624896 0.27679142 0.02372498 -0.21352482 0.118624896 -0.015816653
-0.17398319 0.21352482 -0.19770816 -0.055358287 0.06326661 -0.055358287 0.14234988 0.21352482
0.055358287 0.02372498 -0.02372498 -0.055358287 0.055358287 0.26097476 0.04744996 -0.12653323
-0.22934148 -0.07117494 -0.40332466 -0.09489992 -0.5298579 -0.14234988 -0.17398319 -0.039541632
-0.3005164 -0.007908327 -0.015816653 0.12653323 -0.2688831 -0.079083264 0.13444155 -0.02372498
0.1502582 -0.02372498 0.1502582 0.12653323 0.3558747 0.20561649 0.015816653 -0.14234988
0.12653323 0.20561649 -0.015816653 0.22934148 0.29260808 -0.12653323 -0.02372498 -0.09489992
0.07117494 -0.007908327 0.07117494 -0.22143315 0.04744996 -0.1502582 0.110716574 -0.54567456
-0.26097476 -0.6563911 -0.3795997 -0.17398319 -0.031633306 -0.3795997 0.1502582 0.23724979
-0.39541632 0.54567456 -0.48240793 -0.08699159 -0.102808245 -0.07117494 0.22934148 0.3321497
-0.37169135 0.6010328 -0.41123298 -0.23724979 0.22934148 -0.21352482 0.49031624 0.14234988
-0.13444155 0.48240793 0.079083264 -0.3242414 0.43495795 -0.23724979 0.47449958 0.09489992
0.5061329 0.2688831 -0.079083264 -0.04744996 0.08699159 -0.14234988 -0.02372498 -0.007908327
-0.14234988 -0.110716574 0.13444155 0.08699159 -0.08699159 -0.15816653 -0.04744996 0.118624896
-0.039541632 0.079083264 0.110716574 0.08699159 -0.15816653 -0.055358287 0.1502582 -0.18979985
0.17398319 0.12653323 -0.118624896 0.055358287 0.079083264 -0.08699159 -0.08699159 0.039541632
-0.15816653 -0.12653323 -0.07117494 0.102808245 0.18189152 -0.17398319 0.1502582 -0.17398319
-0.110716574 -0.12653323 -0.07117494 -0.055358287 -0.18979985 -0.079083264 0.06326661 -0.015816653
0.079083264 -0.06326661 0.039541632 0.02372498 0.24515812 -0.04744996 0.031633306 -0.079083264
-0.13444155 -0.04744996 -0.039541632 0.07117494 0.13444155 0.08699159 -0.031633306 0.12653323
0.13444155 -0.102808245 -0.04744996 0.21352482 0.15816653 0.16607486 -0.13444155 0.23724979
-0.08699159 -0.031633306 0.06326661 0.102808245 -0.15816653 0.110716574 -0.15816653 -0.055358287
-0.102808245 -0.22934148 -0.22143315 -0.02372498 -0.21352482 0.031633306 -0.079083264 0.18189152
0.055358287 0.19770816 0.3242414 -0.08699159 0.06326661 0.04744996 0.28469977 0.22143315
0.26097476 0.031633306 0.17398319 0.007908327 0.3321497 -0.22143315 -0.09489992 0.015816653
-0.12653323 -0.079083264 0.46659127 -0.007908327 -0.1502582 -0.26097476 -0.41914132 -0.2688831
-0.41914132 -0.1502582 0.06326661 -0.055358287 0.118624896 -0.02372498 -0.031633306 -0.079083264
-0.13444155 0.04744996 -0.039541632 -0.09489992 -0.25306645 0.13444155 0.0 0.25306645

sequential_2/dense_8/MatMul i1 [100, 80] scale=0.0064366683 zero_point=0
00000000: 2669 0b0c 2af4 11e7 00e6 f612 06e6 0014
00000010: 1bea 01f5 052b de08 1224 dff5 18e5 e823
00000020: ef09 3ff0 01e5 1de3 1a25 d9f6 f7fe f3db
00000030: 09ef 081d fe5a abf6 1b01 1508 f421 f6fa
00000040: 26b2 1d19 f80f eddc ed02 b00a ebdf 20e8
00000050: d0f6 d1d0 f8f4 e804 e403 060e 160c 2200
00000060: f128 d41d b714 341d 25ff 09de 18ff 13ed
00000070: 0929 0408 f6ff 14fd d716 f3fa 070e ea1a
00000080: 35c7 200c 322e 19f7 08e4 fed1 08e5 2014
00000090: 190d 1df1 bdf5 b8ff f919 e7ee 10f0 ff1c
000000a0: f4cd 35d7 f5f0 f61b fb14 d3e0 dd09 ef12
000000b0: eafe 1b20 ea00 c0f3 f3f4 1424 0301 1fed
000000c0: d0e1 0e0d 0e1f 1008 02d3 0ae3 122c d914
000000d0: 16fb fd35 d994 3cf6 d929 32f6 190a 1c1e
000000e0: fbdf fbea 0508 1518 1507 1a0e 1a15 ef2f
000000f0: 0feb 22c6 08ea d814 1001 e11f 1604 0606
0.2445934 0.67585015 0.07080335 0.07724002 0.27034009 -0.07724002 0.10942336 -0.16091672
0.0 -0.16735338 -0.06436668 0.11586003 0.03862001 -0.16735338 0.0 0.12873337
0.17379004 -0.1416067 0.0064366683 -0.07080335 0.03218334 0.27677673 -0.21884672 0.051493347
0.11586003 0.23172006 -0.21241006 -0.07080335 0.15448004 -0.17379004 -0.15448004 0.22528338
-0.10942336 0.057930015 0.4055101 -0.10298669 0.0064366683 -0.17379004 0.18666339 -0.18666339
0.16735338 0.23815674 -0.25103006 -0.06436668 -0.057930015 -0.012873337 -0.08367669 -0.23815674
0.057930015 -0.10942336 0.051493347 0.18666339 -0.012873337 0.57930017 -0.5471168 -0.06436668
0.17379004 0.0064366683 0.13517004 0.051493347 -0.07724002 0.21241006 -0.06436668 -0.03862001
0.2445934 -0.5020601 0.18666339 0.16091672 -0.051493347 0.096550025 -0.1222967 -0.23172006
-0.1222967 0.012873337 -0.51493347 0.06436668 -0.13517004 -0.21241006 0.20597339 -0.15448004
-0.30896008 -0.06436668 -0.3025234 -0.30896008 -0.051493347 -0.07724002 -0.15448004 0.025746673
-0.18022671 0.019310005 0.03862001 0.09011336 0.1416067 0.07724002 0.21884672 0.0
-0.096550025 0.25746673 -0.2832134 0.18666339 -0.4698768 0.12873337 0.33470675 0.18666339
0.23815674 -0.0064366683 0.057930015 -0.21884672 0.15448004 -0.0064366683 0.1222967 -0.1222967
0.057930015 0.2639034 0.025746673 0.051493347 -0.06436668 -0.0064366683 0.12873337 -0.019310005
-0.2639034 0.1416067 -0.08367669 -0.03862001 0.04505668 0.09011336 -0.1416067 0.16735338
0.34114343 -0.3668901 0.20597339 0.07724002 0.32183343 0.29608673 0.16091672 -0.057930015
0.051493347 -0.18022671 -0.012873337 -0.3025234 0.051493347 -0.17379004 0.20597339 0.12873337
0.16091672 0.08367669 0.18666339 -0.096550025 -0.43125677 -0.07080335 -0.46344012 -0.0064366683
-0.04505668 0.16091672 -0.16091672 -0.11586003 0.10298669 -0.10298669 -0.0064366683 0.18022671
-0.07724002 -0.32827008 0.34114343 -0.2639034 -0.07080335 -0.10298669 -0.06436668 0.17379004
-0.03218334 0.12873337 -0.28965008 -0.20597339 -0.22528338 0.057930015 -0.10942336 0.11586003
-0.1416067 -0.012873337 0.17379004 0.20597339 -0.1416067 0.0 -0.41194677 -0.08367669
-0.08367669 -0.07724002 0.12873337 0.23172006 0.019310005 0.0064366683 0.19953671 -0.1222967
-0.30896008 -0.19953671 0.09011336 0.08367669 0.09011336 0.19953671 0.10298669 0.051493347
0.012873337 -0.28965008 0.06436668 -0.18666339 0.11586003 0.2832134 -0.25103006 0.12873337
0.1416067 -0.03218334 -0.019310005 0.34114343 -0.25103006 -0.69516015 0.3862001 -0.06436668
-0.25103006 0.2639034 0.32183343 -0.06436668 0.16091672 0.06436668 0.18022671 0.19310005
-0.03218334 -0.21241006 -0.03218334 -0.1416067 0.03218334 0.051493347 0.13517004 0.15448004
0.13517004 0.04505668 0.16735338 0.09011336 0.16735338 0.13517004 -0.10942336 0.3025234
0.096550025 -0.13517004 0.21884672 -0.37332678 0.051493347 -0.1416067 -0.25746673 0.12873337
0.10298669 0.0064366683 -0.19953671 0.19953671 0.1416067 0.025746673 0.03862001 0.03862001

sequential_2/dense_9/MatMul i1 [50, 100] scale=0.0053647943 zero_point=0
00000000: eaff d821 2ac7 f0f6 e315 29de 4307 f1e0
00000010: 0e20 001e ea25 15e3 cbdb 3912 1617 fbec
00000020: 1c1b 0046 35c4 1d24 e9ec f0e9 f3f1 14e4
00000030: dcf0 01e9 0e10 e52f b2fb 13b6 1327 f429
00000040: b5c1 19d8 1b00 182b caf2 d62e d8fe 2aec
00000050: e2b7 2224 0aff 22f6 db34 12ef d4f6 f7f9
00000060: 1eb4 23f3 f037 f1f6 141c f601 14f9 fa3b
00000070: 0b12 e5fd 22ed c7f3 1d20 f23e 090f c71b
00000080: effd 2aee 13db e6db 3915 dd15 ede4 f416
00000090: f703 eff7 0bed 0415 e60d 152d 103b 0537
000000a0: 08d0 21e1 4b09 dedb 1427 fa01 e8f3 f004
000000b0: da1a f62a bbe6 0014 34ea 1524 3f29 e91e
000000c0: 0411 f101 fdda f6f4 1827 0bdc 1be3 4125
000000d0: 0b22 ea0f ca18 f73e 52ee ebe9 01ea 0719
000000e0: 0af6 ef1c f301 0015 ec18 f1d4 08e0 1dda
000000f0: 08f1 fc0c 2911 fae9 4908 f4fb 261f 0009
-0.118025474 -0.0053647943 -0.21459177 0.17703821 0.22532135 -0.3057933 -0.08583671 -0.053647943
-0.15557903 0.112660676 0.21995656 -0.182403 0.35944122 0.03755356 -0.08047192 -0.17167342
0.07510712 0.17167342 0.0 0.16094384 -0.118025474 0.19849738 0.112660676 -0.15557903
-0.2843341 -0.19849738 0.3057933 0.0965663 0.118025474 0.12339027 -0.026823971 -0.107295886
0.15021424 0.14484945 0.0 0.3755356 0.2843341 -0.32188767 0.15557903 0.1931326
-0.12339027 -0.107295886 -0.08583671 -0.12339027 -0.06974232 -0.08047192 0.107295886 -0.15021424
-0.1931326 -0.08583671 0.0053647943 -0.12339027 0.07510712 0.08583671 -0.14484945 0.25214532
-0.41845396 -0.026823971 0.101931095 -0.39699477 0.101931095 0.20922698 -0.06437753 0.21995656
-0.40235958 -0.33798203 0.13411985 -0.21459177 0.14484945 0.0 0.12875506 0.23068616
-0.2896989 -0.07510712 -0.22532135 0.24678054 -0.21459177 -0.010729589 0.22532135 -0.107295886
-0.16094384 -0.39163 0.182403 0.1931326 0.053647943 -0.0053647943 0.182403 -0.053647943
-0.19849738 0.2789693 0.0965663 -0.0912015 -0.23605095 -0.053647943 -0.04828315 -0.03755356
0.16094384 -0.40772438 0.1877678 -0.06974232 -0.08583671 0.29506367 -0.08047192 -0.053647943
0.107295886 0.15021424 -0.053647943 0.0053647943 0.107295886 -0.03755356 -0.032188766 0.31652287
0.059012737 0.0965663 -0.14484945 -0.016094383 0.182403 -0.101931095 -0.3057933 -0.06974232
0.15557903 0.17167342 -0.07510712 0.33261725 0.04828315 0.08047192 -0.3057933 0.14484945
-0.0912015 -0.016094383 0.22532135 -0.0965663 0.101931095 -0.19849738 -0.13948464 -0.19849738
0.3057933 0.112660676 -0.1877678 0.112660676 -0.101931095 -0.15021424 -0.06437753 0.118025474
-0.04828315 0.016094383 -0.0912015 -0.04828315 0.059012737 -0.101931095 0.021459177 0.112660676
-0.13948464 0.06974232 0.112660676 0.24141574 0.08583671 0.31652287 0.026823971 0.29506367
0.042918354 -0.25751013 0.17703821 -0.16630863 0.40235958 0.04828315 -0.182403 -0.19849738
0.107295886 0.20922698 -0.032188766 0.0053647943 -0.12875506 -0.06974232 -0.08583671 0.021459177
-0.20386219 0.13948464 -0.053647943 0.22532135 -0.3701708 -0.13948464 0.0 0.107295886
0.2789693 -0.118025474 0.112660676 0.1931326 0.33798203 0.21995656 -0.12339027 0.16094384
0.021459177 0.0912015 -0.08047192 0.0053647943 -0.016094383 -0.20386219 -0.053647943 -0.06437753
0.12875506 0.20922698 0.059012737 -0.1931326 0.14484945 -0.15557903 0.34871164 0.19849738
0.059012737 0.182403 -0.118025474 0.08047192 -0.2896989 0.12875506 -0.04828315 0.33261725
0.43991312 -0.0965663 -0.112660676 -0.12339027 0.0053647943 -0.118025474 0.03755356 0.13411985
0.053647943 -0.053647943 -0.0912015 0.15021424 -0.06974232 0.0053647943 0.0 0.112660676
-0.107295886 0.12875506 -0.08047192 -0.23605095 0.042918354 -0.17167342 0.15557903 -0.20386219
0.042918354 -0.08047192 -0.021459177 0.06437753 0.21995656 0.0912015 -0.032188766 -0.12339027
0.39163 0.042918354 -0.06437753 -0.026823971 0.20386219 0.16630863 0.0 0.04828315

sequential_2/dense_10/MatMul i1 [23, 50] scale=0.005688837 zero_point=0
00000000: 2327 263e 22d1 c9eb de16 de21 c9ce ea20
00000010: ec08 afbd c1b9 1f19 dded bd0c b105 db1d
00000020: 46f2 dfc9 05fb 2d2e d206 c698 eb26 e42f
00000030: f803 27f3 f003 f314 a0b5 d8d3 39c0 1cca
00000040: 1c47 2bf1 c11f a69e c3fc 0896 d3d0 f8df
00000050: a1f0 20b6 200e 02da 3a1d e738 bbdf 1c4d
00000060: bde7 34d1 01ec 220d 310c ea24 2318 33d3
00000070: 09f1 ef0d 2c3d d220 c30d 33c4 efeb 16d0
00000080: d6af 2d07 dbc6 c5e8 09ce fb0e 0d08 0f18
00000090: 27fe d323 cd10 ebe5 96be 1d23 27d7 d0a5
000000a0: d4e3 e8bc 36f4 fee9 0dda faa8 b3ed 0911
000000b0: f625 1b18 bd11 2707 441a d145 fc0d 03ce
000000c0: 93ca d8ed d13d 2316 3ec3 cbe5 cdca 9efe
000000d0: bfec 2834 34de 25ba e0b5 f5d7 f2c5 c8d6
000000e0: 34fc b8a9 09fc bd09 0a05 3632 3324 be3b
000000f0: 2405 b9e6 c41a 16cf 3ba5 1b0f fa40 1ae1
0.19910929 0.22186464 0.2161758 0.3527079 0.19342045 -0.26737532 -0.31288603 -0.119465575
-0.19342045 0.1251544 -0.19342045 0.18773161 -0.31288603 -0.28444183 -0.1251544 0.18204278
-0.113776736 0.045510694 -0.4607958 -0.38115206 -0.3583967 -0.40390742 0.17635395 0.14222091
-0.19910929 -0.1080879 -0.38115206 0.06826604 -0.4494181 0.028444184 -0.21048696 0.16497627
0.39821857 -0.07964371 -0.18773161 -0.31288603 0.028444184 -0.028444184 0.25599766 0.2616865
-0.2616865 0.03413302 -0.32995254 -0.59163904 -0.119465575 0.2161758 -0.15928742 0.26737532
-0.045510694 0.01706651 0.22186464 -0.07395488 -0.09102139 0.01706651 -0.07395488 0.113776736
-0.54612833 -0.42666277 -0.22755347 -0.25599766 0.3242637 -0.36408556 0.15928742 -0.30719718
0.15928742 0.40390742 0.24461998 -0.08533255 -0.3583967 0.17635395 -0.5119953 -0.557506
-0.34701905 -0.022755347 0.045510694 -0.6030167 -0.25599766 -0.27306417 -0.045510694 -0.18773161
-0.5404395 -0.09102139 0.18204278 -0.42097393 0.18204278 0.07964371 0.011377674 -0.2161758
0.32995254 0.16497627 -0.14222091 0.31857485 -0.39252973 -0.18773161 0.15928742 0.43804044
-0.38115206 -0.14222091 0.29581952 -0.26737532 0.005688837 -0.113776736 0.19342045 0.07395488
0.278753 0.06826604 -0.1251544 0.20479813 0.19910929 0.13653208 0.29013067 -0.25599766
0.051199533 -0.08533255 -0.09671023 0.07395488 0.2503088 0.34701905 -0.2616865 0.18204278
-0.34701905 0.07395488 0.29013067 -0.3413302 -0.09671023 -0.119465575 0.1251544 -0.27306417
-0.23893115 -0.4607958 0.25599766 0.039821856 -0.21048696 -0.32995254 -0.33564138 -0.13653208
0.051199533 -0.28444183 -0.028444184 0.07964371 0.07395488 0.045510694 0.08533255 0.13653208
0.22186464 -0.011377674 -0.25599766 0.19910929 -0.29013067 0.09102139 -0.119465575 -0.15359859
-0.6030167 -0.37546322 0.16497627 0.19910929 0.22186464 -0.2332423 -0.27306417 -0.51768416
-0.2503088 -0.16497627 -0.13653208 -0.3868409 0.30719718 -0.06826604 -0.011377674 -0.13084325
0.07395488 -0.2161758 -0.03413302 -0.5006176 -0.43804044 -0.1080879 0.051199533 0.09671023
-0.056888368 0.21048696 0.15359859 0.13653208 -0.38115206 0.09671023 0.22186464 0.039821856
0.3868409 0.14790976 -0.26737532 0.39252973 -0.022755347 0.07395488 0.01706651 -0.28444183
-0.6200832 -0.30719718 -0.22755347 -0.1080879 -0.26737532 0.34701905 0.19910929 0.1251544
0.3527079 -0.34701905 -0.30150834 -0.15359859 -0.29013067 -0.30719718 -0.557506 -0.011377674
-0.3697744 -0.113776736 0.22755347 0.29581952 0.29581952 -0.19342045 0.21048696 -0.39821857
-0.18204278 -0.42666277 -0.0625772 -0.2332423 -0.07964371 -0.33564138 -0.31857485 -0.23893115
0.29581952 -0.022755347 -0.40959626 -0.4949288 0.051199533 -0.022755347 -0.38115206 0.051199533
0.056888368 0.028444184 0.30719718 0.28444183 0.29013067 0.20479813 -0.37546322 0.33564138
0.20479813 0.028444184 -0.40390742 -0.14790976 -0.3413302 0.14790976 0.1251544 -0.278753
0.33564138 -0.51768416 0.15359859 0.08533255 -0.03413302 0.36408556 0.14790976 -0.17635395
